…
install matlabplot (python3 -m pip install -U matplotlib)
install certifi in order to read the cifar10 dataset: sudo /Applications/Python\ 3.6/Install\ Certificates.command


a) code directly taken from the website (https://adventuresinmachinelearning.com/keras-tutorial-cnn-11-lines/)
set num of classes = 10 in the last dense layer

Summary information of your model as follows:
_________________________________________________________________
Layer (type)                 Output Shape              Param #   
=================================================================
conv2d_1 (Conv2D)            (None, 32, 32, 32)        2432      
_________________________________________________________________
max_pooling2d_1 (MaxPooling2 (None, 16, 16, 32)        0         
_________________________________________________________________
conv2d_2 (Conv2D)            (None, 14, 14, 32)        9248      
_________________________________________________________________
flatten_1 (Flatten)          (None, 6272)              0         
_________________________________________________________________
dense_1 (Dense)              (None, 512)               3211776   
_________________________________________________________________
dense_2 (Dense)              (None, 10)                5130      
=================================================================
Total params: 3,228,586
Trainable params: 3,228,586
Non-trainable params: 0
_________________________________________________________________

b) please look at "HW2_3b.png" with the plot with "model loss for b)" title

c) please look at "HW2_3c.png" with "model loss with BatchNormalization layer" title 
_________________________________________________________________
Layer (type)                 Output Shape              Param #   
=================================================================
conv2d_1 (Conv2D)            (None, 32, 32, 32)        2432      
_________________________________________________________________
batch_normalization_1 (Batch (None, 32, 32, 32)        128       
_________________________________________________________________
max_pooling2d_1 (MaxPooling2 (None, 16, 16, 32)        0         
_________________________________________________________________
conv2d_2 (Conv2D)            (None, 14, 14, 32)        9248      
_________________________________________________________________
flatten_1 (Flatten)          (None, 6272)              0         
_________________________________________________________________
dense_1 (Dense)              (None, 512)               3211776   
_________________________________________________________________
dense_2 (Dense)              (None, 10)                5130      
=================================================================
Total params: 3,228,714
Trainable params: 3,228,650
Non-trainable params: 64

d) please look at "HW2_3d.png" file with "model loss with dropout layer" title
_________________________________________________________________
Layer (type)                 Output Shape              Param #   
=================================================================
conv2d_1 (Conv2D)            (None, 32, 32, 32)        2432      
_________________________________________________________________
dropout_1 (Dropout)          (None, 32, 32, 32)        0         
_________________________________________________________________
max_pooling2d_1 (MaxPooling2 (None, 16, 16, 32)        0         
_________________________________________________________________
conv2d_2 (Conv2D)            (None, 14, 14, 32)        9248      
_________________________________________________________________
flatten_1 (Flatten)          (None, 6272)              0         
_________________________________________________________________
dense_1 (Dense)              (None, 512)               3211776   
_________________________________________________________________
dense_2 (Dense)              (None, 10)                5130      
=================================================================
Total params: 3,228,586
Trainable params: 3,228,586
Non-trainable params: 0

It seems like that the additional layers do not necessarily help me decrease errors (got lower training errors but almost similar or even higher testing errors)

For batchNormalization layer, the additional layer seems even worsen the training. The test error becomes larger than the test error as epoch increases. The training error initially is higher but becomes lower when epoch is higher.
…
